unittests/main/data/two_nodes.onnx (onnx, 9410 bytes, 2 tensors)

encoder.encoders.0.layer_norm_att.weight f4 [1024]
000000 00 00 be ba 00 00 57 3c 00 00 b4 3d 00 00 ff 3d
       -0.001449585 0.013122559 0.087890625 0.12451172
000010 00 00 ca 3d 00 00 39 ba 00 00 46 3e 00 00 d8 3c
       0.09863281 -0.000705719 0.19335938 0.026367188
000020 00 00 3d 3e 00 00 4c 3c 00 00 af bb 00 00 ea 3d
       0.18457031 0.012451172 -0.005340576 0.11425781
000030 00 00 09 3e 00 00 01 3e 00 00 bf 39 00 00 13 3e
       0.13378906 0.12597656 0.0003643036 0.14355469
000040 00 00 6f bc 00 00 1e 3e 00 00 22 3c 00 00 57 3e
       -0.014587402 0.15429688 0.009887695 0.20996094
000050 00 00 7c 3e 00 00 59 3e 00 00 2e 39 00 00 85 3e
       0.24609375 0.21191406 0.00016593933 0.25976562
000060 00 00 2d 3b 00 00 43 ba 00 00 d8 3d 00 00 8d 3a
       0.0026397705 -0.00074386597 0.10546875 0.0010757446
000070 00 00 1b 3e 00 00 b4 3d 00 00 f9 3d 00 00 5a 3e
       0.15136719 0.087890625 0.12158203 0.21289062
000080 00 00 1f 3e 00 00 4a bc 00 00 65 bb 00 00 d5 3d
       0.15527344 -0.012329102 -0.0034942627 0.104003906
000090 00 00 fe 3d 00 00 26 3e 00 00 2d 3e 00 00 2b 3e
       0.12402344 0.16210938 0.16894531 0.16699219
0000a0 00 00 55 3e 00 00 15 3e 00 00 1d 3e 00 00 15 3e
       0.20800781 0.14550781 0.15332031 0.14550781
0000b0 00 00 be 3d 00 00 b1 3c 00 00 bc 3d 00 00 a3 3a
       0.09277344 0.021606445 0.091796875 0.0012435913
0000c0 00 00 00 3e 00 00 13 3e 00 00 4e 3d 00 00 34 3e
       0.125 0.14355469 0.05029297 0.17578125
0000d0 00 00 60 3e 00 00 55 b9 00 00 ee ba 00 00 2a bd
       0.21875 -0.00020313263 -0.0018157959 -0.041503906
0000e0 00 00 d6 bc 00 00 0c 3e 00 00 0d 3e 00 00 7a bb
       -0.026123047 0.13671875 0.13769531 -0.0038146973
0000f0 00 00 e4 bb 00 00 1a 3e 00 00 48 3e 00 00 0e 3e
       -0.006958008 0.15039062 0.1953125 0.13867188
000100 00 00 e3 3d 00 00 e6 39 00 00 d9 3d 00 00 81 3c
       0.110839844 0.0004386902 0.10595703 0.01574707
000110 00 00 34 3e 00 00 92 bc 00 00 1d 3e 00 00 ec 3d
       0.17578125 -0.017822266 0.15332031 0.115234375
000120 00 00 06 3e 00 00 64 3e 00 00 fc 3d 00 00 79 3e
       0.13085938 0.22265625 0.123046875 0.24316406
000130 00 00 04 3e 00 00 ba 3d 00 00 d5 3d 00 00 38 3e
       0.12890625 0.09082031 0.104003906 0.1796875
000140 00 00 1d 3e 00 00 3c 3e 00 00 10 3e 00 00 b1 39
       0.15332031 0.18359375 0.140625 0.0003376007
000150 00 00 ed 3d 00 00 1b 3e 00 00 a7 3d 00 00 f3 3d
       0.115722656 0.15136719 0.08154297 0.118652344
000160 00 00 c9 3d 00 00 30 3e 00 00 65 3e 00 00 cb 3d
       0.09814453 0.171875 0.22363281 0.099121094
000170 00 00 86 3e 00 00 74 3e 00 00 5a 3e 00 00 13 3e
       0.26171875 0.23828125 0.21289062 0.14355469
000180 00 00 09 be 00 00 47 3a 00 00 91 bd 00 00 37 bb
       -0.13378906 0.00075912476 -0.07080078 -0.0027923584
000190 00 00 2e bb 00 00 43 3e 00 00 18 3e 00 00 a6 3b
       -0.0026550293 0.19042969 0.1484375 0.005065918
0001a0 00 00 20 bb 00 00 a7 3d 00 00 60 3e 00 00 ac b9
       -0.0024414062 0.08154297 0.21875 -0.00032806396
0001b0 00 00 c9 3d 00 00 c1 3d 00 00 9e 3d 00 00 8a 3b
       0.09814453 0.09423828 0.07714844 0.004211426
0001c0 00 00 43 3e 00 00 85 3c 00 00 13 3b 00 00 bb 39
       0.19042969 0.016235352 0.002243042 0.0003566742
0001d0 00 00 d1 b8 00 00 77 3b 00 00 ef 3a 00 00 05 3e
       -9.9658966e-05 0.003768921 0.0018234253 0.12988281
0001e0 00 00 ab 3d 00 00 3e 3e 00 00 15 3e 00 00 ad 38
       0.083496094 0.18554688 0.14550781 8.249283e-05
0001f0 00 00 83 3e 00 00 28 3e 00 00 cd 3d 00 00 3e 3e
       0.25585938 0.1640625 0.100097656 0.18554688
000200 00 00 e3 3d 00 00 ef 3d 00 00 1f 3e 00 00 7e 3e
       0.110839844 0.11669922 0.15527344 0.24804688
000210 00 00 1f 3e 00 00 0b 3e 00 00 09 bc 00 00 8c 3a
       0.15527344 0.13574219 -0.008361816 0.0010681152
000220 00 00 67 3e 00 00 34 3e 00 00 06 3e 00 00 08 3e
       0.22558594 0.17578125 0.13085938 0.1328125
000230 00 00 dc 3d 00 00 33 3d 00 00 3c 3e 00 00 29 3e
       0.107421875 0.043701172 0.18359375 0.16503906
000240 00 00 72 3b 00 00 2a bb 00 00 ab 3d 00 00 40 bb
       0.003692627 -0.0025939941 0.083496094 -0.0029296875
000250 00 00 8c 3e 00 00 7c 3b 00 00 16 3e 00 00 24 3e
       0.2734375 0.0038452148 0.14648438 0.16015625
000260 00 00 83 b9 00 00 29 3e 00 00 aa 3d 00 00 52 3e
       -0.00024986267 0.16503906 0.08300781 0.20507812
000270 00 00 f7 3d 00 00 f5 bc 00 00 36 3e 00 00 13 3e
       0.12060547 -0.029907227 0.17773438 0.14355469
000280 00 00 16 3e 00 00 04 3e 00 00 4a 3e 00 00 65 3e
       0.14648438 0.12890625 0.19726562 0.22363281
000290 00 00 3a 3e 00 00 00 3e 00 00 e8 3b 00 00 21 3e
       0.18164062 0.125 0.007080078 0.15722656
0002a0 00 00 8f bb 00 00 0f ba 00 00 08 3e 00 00 60 3e
       -0.0043640137 -0.0005455017 0.1328125 0.21875
0002b0 00 00 af bb 00 00 0f 3a 00 00 41 bb 00 00 c8 3b
       -0.005340576 0.0005455017 -0.0029449463 0.0061035156
0002c0 00 00 ca 38 00 00 da b9 00 00 06 3e 00 00 53 3e
       9.6321106e-05 -0.000415802 0.13085938 0.20605469
0002d0 00 00 3e 3e 00 00 3d 3c 00 00 5d 3e 00 00 f3 3d
       0.18554688 0.0115356445 0.21582031 0.118652344
0002e0 00 00 7a 3e 00 00 0a bc 00 00 9f bc 00 00 83 3e
       0.24414062 -0.008422852 -0.01940918 0.25585938
0002f0 00 00 1b 3e 00 00 59 3a 00 00 18 3e 00 00 02 3e
       0.15136719 0.0008277893 0.1484375 0.12695312
000300 00 00 be 3d 00 00 b5 3d 00 00 9a ba 00 00 2e 3e
       0.09277344 0.088378906 -0.0011749268 0.16992188
000310 00 00 6a 3e 00 00 ee 3d 00 00 65 3e 00 00 24 3e
       0.22851562 0.11621094 0.22363281 0.16015625
000320 00 00 36 3a 00 00 ec 3d 00 00 ac 3b 00 00 a6 3d
       0.0006942749 0.115234375 0.0052490234 0.08105469
000330 00 00 08 3e 00 00 62 3e 00 00 f3 3d 00 00 93 3d
       0.1328125 0.22070312 0.118652344 0.071777344
000340 00 00 9d 3b 00 00 a9 3d 00 00 5f 3e 00 00 5b 3e
       0.0047912598 0.08251953 0.21777344 0.21386719
000350 00 00 02 3e 00 00 ba ba 00 00 08 3e 00 00 3f 3e
       0.12695312 -0.0014190674 0.1328125 0.18652344
000360 00 00 74 3e 00 00 3d 3e 00 00 17 3e 00 00 08 3e
       0.23828125 0.18457031 0.14746094 0.1328125
000370 00 00 2a 3e 00 00 03 3e 00 00 d0 bc 00 00 b1 ba
       0.16601562 0.12792969 -0.025390625 -0.0013504028
000380 00 00 13 3e 00 00 70 3e 00 00 1e 3e 00 00 04 3e
       0.14355469 0.234375 0.15429688 0.12890625
000390 00 00 40 bb 00 00 61 ba 00 00 69 3e 00 00 4d 3e
       -0.0029296875 -0.0008583069 0.22753906 0.20019531
0003a0 00 00 e8 39 00 00 3c 3a 00 00 84 bb 00 00 11 3e
       0.00044250488 0.0007171631 -0.0040283203 0.14160156
0003b0 00 00 4c 3b 00 00 45 3e 00 00 f7 3d 00 00 18 3e
       0.003112793 0.19238281 0.12060547 0.1484375
0003c0 00 00 8d 3e 00 00 0d 3e 00 00 c6 3d 00 00 d9 3d
       0.27539062 0.13769531 0.09667969 0.10595703
0003d0 00 00 83 3e 00 00 d9 38 00 00 e2 3a 00 00 3f 3e
       0.25585938 0.00010347366 0.0017242432 0.18652344
0003e0 00 00 30 3e 00 00 50 3e 00 00 02 3e 00 00 ae 3d
       0.171875 0.203125 0.12695312 0.08496094
0003f0 00 00 06 3b 00 00 b0 bc 00 00 5d 3e 00 00 bb bb
       0.0020446777 -0.021484375 0.21582031 -0.005706787

encoder.encoders.0.layer_norm_att.bias f4 [1024]
000000 00 00 a2 b9 00 00 08 38 00 00 da ba 00 00 b2 bc
       -0.00030899048 3.2424927e-05 -0.001663208 -0.021728516
000010 00 00 a0 bb 00 00 06 3a 00 00 1d bd 00 00 83 ba
       -0.0048828125 0.00051116943 -0.038330078 -0.0009994507
000020 00 00 c6 3b 00 00 4b 3a 00 00 84 ba 00 00 12 3c
       0.0060424805 0.00077438354 -0.0010070801 0.008911133
000030 00 00 0c 3c 00 00 d4 bc 00 00 47 3a 00 00 b7 bb
       0.008544922 -0.025878906 0.00075912476 -0.005584717
000040 00 00 56 3a 00 00 b0 ba 00 00 a2 ba 00 00 e0 3a
       0.0008163452 -0.0013427734 -0.0012359619 0.0017089844
000050 00 00 fe 3c 00 00 76 bc 00 00 85 b8 00 00 d3 ba
       0.03100586 -0.015014648 -6.341934e-05 -0.0016098022
000060 00 00 55 39 00 00 24 39 00 00 54 bc 00 00 80 ba
       0.00020313263 0.00015640259 -0.012939453 -0.0009765625
000070 00 00 57 bd 00 00 19 bc 00 00 0d 3b 00 00 7f 3d
       -0.052490234 -0.009338379 0.0021514893 0.06225586
000080 00 00 cf 3c 00 00 29 38 00 00 13 b8 00 00 47 bc
       0.025268555 4.029274e-05 -3.504753e-05 -0.012145996
000090 00 00 d6 bb 00 00 31 3c 00 00 8f bc 00 00 42 ba
       -0.0065307617 0.010803223 -0.017456055 -0.00074005127
0000a0 00 00 92 bc 00 00 36 bb 00 00 a3 3c 00 00 16 3c
       -0.017822266 -0.0027770996 0.019897461 0.009155273
0000b0 00 00 be bc 00 00 f3 bb 00 00 24 3c 00 00 88 3a
       -0.02319336 -0.0074157715 0.010009766 0.0010375977
0000c0 00 00 03 3c 00 00 79 bc 00 00 95 bb 00 00 03 3d
       0.0079956055 -0.015197754 -0.004547119 0.031982422
0000d0 00 00 21 bc 00 00 12 3a 00 00 90 39 00 00 cd 38
       -0.00982666 0.0005569458 0.0002746582 9.775162e-05
0000e0 00 00 27 ba 00 00 b8 3b 00 00 6c bc 00 00 44 ba
       -0.00063705444 0.0056152344 -0.014404297 -0.00074768066
0000f0 00 00 59 3a 00 00 06 bb 00 00 93 bc 00 00 09 3b
       0.0008277893 -0.0020446777 -0.017944336 0.002090454
000100 00 00 61 bc 00 00 9a 38 00 00 8c bb 00 00 f4 ba
       -0.01373291 7.343292e-05 -0.004272461 -0.0018615723
000110 00 00 33 bc 00 00 ef ba 00 00 9e bc 00 00 94 bb
       -0.010925293 -0.0018234253 -0.01928711 -0.0045166016
000120 00 00 d5 bb 00 00 c5 bb 00 00 d6 3c 00 00 44 bb
       -0.006500244 -0.006011963 0.026123047 -0.0029907227
000130 00 00 eb 3b 00 00 a3 bc 00 00 fa bb 00 00 dd 3b
       0.007171631 -0.019897461 -0.0076293945 0.0067443848
000140 00 00 ba 3c 00 00 d4 bb 00 00 9f 3c 00 00 34 3b
       0.022705078 -0.0064697266 0.01940918 0.002746582
000150 00 00 82 3c 00 00 08 3a 00 00 04 bc 00 00 8c bc
       0.01586914 0.0005187988 -0.008056641 -0.017089844
000160 00 00 aa bb 00 00 a7 3a 00 00 61 bc 00 00 17 bb
       -0.0051879883 0.0012741089 -0.01373291 -0.0023040771
000170 00 00 16 bd 00 00 96 3c 00 00 b6 3a 00 00 14 3c
       -0.036621094 0.018310547 0.0013885498 0.009033203
000180 00 00 24 bc 00 00 10 b9 00 00 61 3c 00 00 0a ba
       -0.010009766 -0.0001373291 0.01373291 -0.0005264282
000190 00 00 41 3a 00 00 b0 3b 00 00 5f bb 00 00 43 bb
       0.0007362366 0.0053710938 -0.00340271 -0.0029754639
0001a0 00 00 09 3a 00 00 8a 3b 00 00 9b 3b 00 00 b1 39
       0.0005226135 0.004211426 0.0047302246 0.0003376007
0001b0 00 00 c3 3b 00 00 ca bc 00 00 4a bc 00 00 23 ba
       0.0059509277 -0.024658203 -0.012329102 -0.00062179565
0001c0 00 00 47 ba 00 00 59 3a 00 00 86 ba 00 00 95 b8
       -0.00075912476 0.0008277893 -0.0010223389 -7.104874e-05
0001d0 00 00 91 39 00 00 af 39 00 00 17 b9 00 00 9c bc
       0.00027656555 0.000333786 -0.00014400482 -0.019042969
0001e0 00 00 ea bb 00 00 c2 3c 00 00 90 3c 00 00 94 b9
       -0.0071411133 0.02368164 0.017578125 -0.0002822876
0001f0 00 00 6d bc 00 00 f1 b9 00 00 7b ba 00 00 32 3c
       -0.014465332 -0.00045967102 -0.000957489 0.010864258
000200 00 00 f8 bb 00 00 52 bc 00 00 85 bb 00 00 d9 ba
       -0.0075683594 -0.012817383 -0.004058838 -0.0016555786
000210 00 00 10 3c 00 00 87 bb 00 00 f8 3a 00 00 e4 b8
       0.0087890625 -0.004119873 0.0018920898 -0.00010871887
000220 00 00 bd 3c 00 00 a0 bc 00 00 89 bc 00 00 df bb
       0.023071289 -0.01953125 -0.016723633 -0.00680542
000230 00 00 b6 ba 00 00 b9 3a 00 00 02 3c 00 00 b5 3b
       -0.0013885498 0.001411438 0.00793457 0.0055236816
000240 00 00 70 ba 00 00 59 3a 00 00 24 3c 00 00 52 b9
       -0.00091552734 0.0008277893 0.010009766 -0.0002002716
000250 00 00 e5 bc 00 00 17 3a 00 00 f3 bb 00 00 05 bc
       -0.027954102 0.0005760193 -0.0074157715 -0.008117676
000260 00 00 5c 39 00 00 9a bc 00 00 10 bc 00 00 2c bc
       0.00020980835 -0.018798828 -0.0087890625 -0.010498047
000270 00 00 8e bc 00 00 c2 bb 00 00 10 3c 00 00 1c 3b
       -0.017333984 -0.00592041 0.0087890625 0.002380371
000280 00 00 8a 3b 00 00 f0 bb 00 00 b4 bc 00 00 d4 bb
       0.004211426 -0.0073242188 -0.021972656 -0.0064697266
000290 00 00 b6 bb 00 00 99 3a 00 00 09 ba 00 00 be 3b
       -0.005554199 0.0011672974 -0.0005226135 0.00579834
0002a0 00 00 6b 39 00 00 90 b8 00 00 61 b9 00 00 de bc
       0.00022411346 -6.866455e-05 -0.00021457672 -0.02709961
0002b0 00 00 2b ba 00 00 e7 38 00 00 b4 39 00 00 40 b9
       -0.00065231323 0.00011014938 0.00034332275 -0.00018310547
0002c0 00 00 83 ba 00 00 83 b8 00 00 09 3c 00 00 c7 ba
       -0.0009994507 -6.246567e-05 0.008361816 -0.0015182495
0002d0 00 00 3f 3c 00 00 7c 3b 00 00 d2 3b 00 00 87 bc
       0.011657715 0.0038452148 0.0064086914 -0.016479492
0002e0 00 00 74 3c 00 00 82 3a 00 00 11 39 00 00 b1 bc
       0.014892578 0.0009918213 0.00013828278 -0.021606445
0002f0 00 00 c1 3a 00 00 92 b9 00 00 7c bc 00 00 0f 3d
       0.0014724731 -0.0002784729 -0.015380859 0.03491211
000300 00 00 00 3c 00 00 ab 3b 00 00 26 ba 00 00 ac bc
       0.0078125 0.005218506 -0.00063323975 -0.020996094
000310 00 00 02 bc 00 00 44 bc 00 00 f1 bb 00 00 eb 3b
       -0.00793457 -0.011962891 -0.0073547363 0.007171631
000320 00 00 0a 3a 00 00 a3 bc 00 00 32 3a 00 00 42 3c
       0.0005264282 -0.019897461 0.0006790161 0.01184082
000330 00 00 82 bc 00 00 dc ba 00 00 f8 3a 00 00 08 3c
       -0.01586914 -0.0016784668 0.0018920898 0.008300781
000340 00 00 6e ba 00 00 8a ba 00 00 97 bc 00 00 90 3c
       -0.00090789795 -0.0010528564 -0.018432617 0.017578125
000350 00 00 b7 3b 00 00 29 b9 00 00 53 bc 00 00 7c bc
       0.005584717 -0.00016117096 -0.012878418 -0.015380859
000360 00 00 37 bc 00 00 2a bc 00 00 59 bc 00 00 91 3b
       -0.011169434 -0.010375977 -0.013244629 0.004425049
000370 00 00 3d bc 00 00 d1 bb 00 00 6e 38 00 00 45 3a
       -0.0115356445 -0.006378174 5.6743622e-05 0.00075149536
000380 00 00 b0 bb 00 00 09 3c 00 00 8b 3c 00 00 85 bc
       -0.0053710938 0.008361816 0.016967773 -0.016235352
000390 00 00 0e 3a 00 00 94 3a 00 00 ca bc 00 00 40 3b
       0.000541687 0.0011291504 -0.024658203 0.0029296875
0003a0 00 00 aa 39 00 00 42 39 00 00 c6 3a 00 00 0c bc
       0.00032424927 0.00018501282 0.0015106201 -0.008544922
0003b0 00 00 07 3a 00 00 85 3b 00 00 da bb 00 00 8d 3b
       0.00051498413 0.004058838 -0.006652832 0.0043029785
0003c0 00 00 73 bc 00 00 aa 3c 00 00 ec 3b 00 00 e1 3b
       -0.014831543 0.020751953 0.0072021484 0.006866455
0003d0 00 00 34 bc 00 00 f1 39 00 00 3a 39 00 00 b6 bc
       -0.010986328 0.00045967102 0.00017738342 -0.022216797
0003e0 00 00 b8 bc 00 00 b1 bc 00 00 86 bd 00 00 b1 bb
       -0.022460938 -0.021606445 -0.06542969 -0.0054016113
0003f0 00 00 a1 39 00 00 e5 bd 00 00 17 bd 00 00 11 3a
       0.00030708313 -0.111816406 -0.036865234 0.0005531311
